Tensor("input_1:0", shape=(?, 32, 32, 3), dtype=float32)
(?, 16, 16, 64)
(?, 18, 18, 64)
(?, 8, 8, 64)
Tensor("conv_2/Relu:0", shape=(?, 8, 8, 192), dtype=float32)
compiled: FeatureExtractor
Model: "model_1"
__________________________________________________________________________________________________
Layer (type)                    Output Shape         Param #     Connected to                     
==================================================================================================
input_1 (InputLayer)            (None, 32, 32, 3)    0                                            
__________________________________________________________________________________________________
zero_padding2d_1 (ZeroPadding2D (None, 38, 38, 3)    0           input_1[0][0]                    
__________________________________________________________________________________________________
conv_1_7x7_s2 (Conv2D)          (None, 16, 16, 64)   9472        zero_padding2d_1[0][0]           
__________________________________________________________________________________________________
zero_padding2d_2 (ZeroPadding2D (None, 18, 18, 64)   0           conv_1_7x7_s2[0][0]              
__________________________________________________________________________________________________
pool_1_3x3_s2 (MaxPooling2D)    (None, 8, 8, 64)     0           zero_padding2d_2[0][0]           
__________________________________________________________________________________________________
pool_1_norm (LRN)               (None, 8, 8, 64)     0           pool_1_3x3_s2[0][0]              
__________________________________________________________________________________________________
conv_2_reduce (Conv2D)          (None, 8, 8, 64)     4160        pool_1_norm[0][0]                
__________________________________________________________________________________________________
conv_2 (Conv2D)                 (None, 8, 8, 192)    110784      conv_2_reduce[0][0]              
__________________________________________________________________________________________________
conv_2_norm (LRN)               (None, 8, 8, 192)    0           conv_2[0][0]                     
__________________________________________________________________________________________________
zero_padding2d_3 (ZeroPadding2D (None, 10, 10, 192)  0           conv_2_norm[0][0]                
__________________________________________________________________________________________________
pool_2 (MaxPooling2D)           (None, 4, 4, 192)    0           zero_padding2d_3[0][0]           
__________________________________________________________________________________________________
inception_3a_3x3_reduce (Conv2D (None, 4, 4, 96)     18528       pool_2[0][0]                     
__________________________________________________________________________________________________
inception_3a_5x5_reduce (Conv2D (None, 4, 4, 16)     3088        pool_2[0][0]                     
__________________________________________________________________________________________________
zero_padding2d_4 (ZeroPadding2D (None, 6, 6, 96)     0           inception_3a_3x3_reduce[0][0]    
__________________________________________________________________________________________________
zero_padding2d_5 (ZeroPadding2D (None, 8, 8, 16)     0           inception_3a_5x5_reduce[0][0]    
__________________________________________________________________________________________________
inception_3a_pool (MaxPooling2D (None, 4, 4, 192)    0           pool_2[0][0]                     
__________________________________________________________________________________________________
inception_3a_1x1 (Conv2D)       (None, 4, 4, 64)     12352       pool_2[0][0]                     
__________________________________________________________________________________________________
inception_3a_3x3 (Conv2D)       (None, 4, 4, 128)    110720      zero_padding2d_4[0][0]           
__________________________________________________________________________________________________
inception_3a_5x5 (Conv2D)       (None, 4, 4, 32)     12832       zero_padding2d_5[0][0]           
__________________________________________________________________________________________________
inception_3a_pool_proj (Conv2D) (None, 4, 4, 32)     6176        inception_3a_pool[0][0]          
__________________________________________________________________________________________________
inception_3a_output (Concatenat (None, 4, 4, 256)    0           inception_3a_1x1[0][0]           
                                                                 inception_3a_3x3[0][0]           
                                                                 inception_3a_5x5[0][0]           
                                                                 inception_3a_pool_proj[0][0]     
__________________________________________________________________________________________________
inception_3b_3x3_reduce (Conv2D (None, 4, 4, 128)    32896       inception_3a_output[0][0]        
__________________________________________________________________________________________________
inception_3b_5x5_reduce (Conv2D (None, 4, 4, 32)     8224        inception_3a_output[0][0]        
__________________________________________________________________________________________________
zero_padding2d_6 (ZeroPadding2D (None, 6, 6, 128)    0           inception_3b_3x3_reduce[0][0]    
__________________________________________________________________________________________________
zero_padding2d_7 (ZeroPadding2D (None, 8, 8, 32)     0           inception_3b_5x5_reduce[0][0]    
__________________________________________________________________________________________________
inception_3b_pool (MaxPooling2D (None, 4, 4, 256)    0           inception_3a_output[0][0]        
__________________________________________________________________________________________________
inception_3b_1x1 (Conv2D)       (None, 4, 4, 128)    32896       inception_3a_output[0][0]        
__________________________________________________________________________________________________
inception_3b_3x3 (Conv2D)       (None, 4, 4, 192)    221376      zero_padding2d_6[0][0]           
__________________________________________________________________________________________________
inception_3b_5x5 (Conv2D)       (None, 4, 4, 96)     76896       zero_padding2d_7[0][0]           
__________________________________________________________________________________________________
inception_3b_pool_proj (Conv2D) (None, 4, 4, 64)     16448       inception_3b_pool[0][0]          
__________________________________________________________________________________________________
inception_3b_output (Concatenat (None, 4, 4, 480)    0           inception_3b_1x1[0][0]           
                                                                 inception_3b_3x3[0][0]           
                                                                 inception_3b_5x5[0][0]           
                                                                 inception_3b_pool_proj[0][0]     
__________________________________________________________________________________________________
zero_padding2d_8 (ZeroPadding2D (None, 6, 6, 480)    0           inception_3b_output[0][0]        
__________________________________________________________________________________________________
pool3_3x3 (MaxPooling2D)        (None, 2, 2, 480)    0           zero_padding2d_8[0][0]           
__________________________________________________________________________________________________
inception_4a_3x3_reduce (Conv2D (None, 2, 2, 96)     46176       pool3_3x3[0][0]                  
__________________________________________________________________________________________________
inception_4a_5x5_reduce (Conv2D (None, 2, 2, 16)     7696        pool3_3x3[0][0]                  
__________________________________________________________________________________________________
zero_padding2d_9 (ZeroPadding2D (None, 4, 4, 96)     0           inception_4a_3x3_reduce[0][0]    
__________________________________________________________________________________________________
zero_padding2d_10 (ZeroPadding2 (None, 6, 6, 16)     0           inception_4a_5x5_reduce[0][0]    
__________________________________________________________________________________________________
inception_4a_pool (MaxPooling2D (None, 2, 2, 480)    0           pool3_3x3[0][0]                  
__________________________________________________________________________________________________
inception_4a_1x1 (Conv2D)       (None, 2, 2, 192)    92352       pool3_3x3[0][0]                  
__________________________________________________________________________________________________
inception_4a_3x3 (Conv2D)       (None, 2, 2, 208)    179920      zero_padding2d_9[0][0]           
__________________________________________________________________________________________________
inception_4a_5x5 (Conv2D)       (None, 2, 2, 48)     19248       zero_padding2d_10[0][0]          
__________________________________________________________________________________________________
inception_4a_pool_proj (Conv2D) (None, 2, 2, 64)     30784       inception_4a_pool[0][0]          
__________________________________________________________________________________________________
inception_4a_output (Concatenat (None, 2, 2, 512)    0           inception_4a_1x1[0][0]           
                                                                 inception_4a_3x3[0][0]           
                                                                 inception_4a_5x5[0][0]           
                                                                 inception_4a_pool_proj[0][0]     
__________________________________________________________________________________________________
loss1_ave_pool (AveragePooling2 (None, 1, 1, 512)    0           inception_4a_output[0][0]        
__________________________________________________________________________________________________
loss1_conv (Conv2D)             (None, 1, 1, 128)    65664       loss1_ave_pool[0][0]             
__________________________________________________________________________________________________
flatten_1 (Flatten)             (None, 128)          0           loss1_conv[0][0]                 
__________________________________________________________________________________________________
loss1_fc (Dense)                (None, 1024)         132096      flatten_1[0][0]                  
__________________________________________________________________________________________________
dropout_1 (Dropout)             (None, 1024)         0           loss1_fc[0][0]                   
__________________________________________________________________________________________________
loss1_classifier (Dense)        (None, 10)           10250       dropout_1[0][0]                  
__________________________________________________________________________________________________
activation_1 (Activation)       (None, 10)           0           loss1_classifier[0][0]           
==================================================================================================
Total params: 1,261,034
Trainable params: 1,261,034
Non-trainable params: 0
__________________________________________________________________________________________________
[2.656110095186474, 0.19587430357933044, 0.0, 0.0, 0.0, 2.158923387527466]
